assets/spo2.tflite (tflite, 49168 bytes, 13 tensors)

conv1d_159/bias f4 [48]
00000000: 39c8 ee3d 7ec6 f93d 6970 f13d e042 4fbc
00000010: 0e71 b6bc 0360 ff3d 3d63 003e d85e 69bc
00000020: f3f8 ee3d 6f01 c2bc e682 a8bc 0352 27bc
00000030: 95ca ff3d 9baa f63d 9db8 f93d 5081 4fbc
00000040: 994c 8cbc 5769 ef3d 745f f53d 0779 f63d
00000050: 8909 afbc 36d8 95bc 5e35 f03d 5ca8 013e
00000060: f3ac dabc 3cd2 c3bc 46a3 87bc de41 ea3d
00000070: 860a f33d 93a6 59bc 0654 a6bb 57f5 fa3d
00000080: 71bf f53d 308f fb3d 5eae c03d 9630 f73d
00000090: 3d54 71bc 2a0d 37bc b449 95bc fb22 043e
000000a0: 9e06 8cbc 2f6f f23d 2512 83bc 212c 3cbc
000000b0: 7528 14bc 0f1e bfbc 22d1 6bbc 8659 003e
0.11659283 0.121960625 0.11789019 -0.012650222 -0.022270706 0.12469485 0.12537856 -0.014243804
0.11668577 -0.023682324 -0.02057023 -0.010212424 0.12489811 0.12044259 0.12193415 -0.012665108
-0.017126368 0.11690014 0.11981097 0.12034803 -0.021366851 -0.018291574 0.11728929 0.1266188
-0.026693797 -0.023903958 -0.016557347 0.114383444 0.118672416 -0.013284343 -0.0050759343 0.12253826
0.11999405 0.1228317 0.09408258 0.12069814 -0.014729557 -0.011172572 -0.018223621 0.12903969
-0.017093 0.11837613 -0.015999863 -0.0114851305 -0.009042849 -0.023329763 -0.014393123 0.1253415

conv1d_158/bias f4 [32]
00000000: 00a4 083e dea1 073e d105 0a3e bd25 0c3e
00000010: 2ef4 26bc 6e08 083e ddb9 003e 0cc0 0b3e
00000020: 3217 0cbc 853d 053e 62dd 0c3e 1b51 ec3d
00000030: cf22 093e cb7e 40bc 4cfc 0b3e 53fa 0b3e
00000040: 8ceb 73bc 9c68 013e 24bc 0b3e e044 013e
00000050: 668d f93d c07d 0a3e 76d6 36bc 585a cfbc
00000060: 2fed 3d3b 7e6e d93d 8762 db3d 686e f73d
00000070: b930 e93d 632d e13d f7e8 033e 7aea 023e
0.13343811 0.13245341 0.13478781 0.13686271 -0.010190053 0.13284466 0.12570901 0.13647479
-0.008550452 0.13011749 0.13756326 0.11538907 0.13392185 -0.01174898 0.13670462 0.1366971
-0.014887702 0.12637562 0.13645989 0.1262393 0.12185173 0.13524532 -0.01115953 -0.025311634
0.0028980484 0.10616778 0.10712152 0.12081605 0.11386246 0.10994985 0.12881838 0.12784758

conv1d_157/bias f4 [24]
00000000: 5062 a83d e584 0d3e 6710 383e 0621 a0bb
00000010: edf5 003e badd 7fbc 833a 293e 766f 1abc
00000020: 507a e93d ac42 df3d 9ddf 0f3e 369a 9b3c
00000030: d7b0 f53d f9e0 ee3d 74fe f63d 98df 0b3e
00000040: 551e 63bc f0ba fd3d faf8 e03d ecb1 063e
00000050: d5a2 003e 8713 093e 76c7 12bc 123b 073e
0.082218766 0.13820226 0.17975007 -0.004886749 0.12593813 -0.015616829 0.16526227 -0.009425988
0.114002824 0.109013885 0.14050145 0.018994432 0.1199662 0.11664004 0.12060252 0.13659513
-0.013862212 0.12389171 0.109849885 0.1315381 0.12562115 0.13386355 -0.008958688 0.13206127

conv1d_156/bias f4 [16]
00000000: 9113 643e ce59 3d3e 7354 e43d b2ea 113e
00000010: 0826 e63d b7bf 043e 3e7f 9a3b 5e0a 3c3e
00000020: abe3 94bc 4a50 023e b623 ea3d a515 0e3e
00000030: 4eb2 9eba 2724 13ba 5fe0 e03d ae7d 033e
0.22273089 0.18491289 0.1114892 0.14249685 0.11237723 0.12963758 0.0047148755 0.1836333
-0.018174967 0.1272594 0.114325926 0.13875444 -0.0012107582 -0.0005612992 0.109802954 0.12840912

conv1d_155/bias f4 [8]
00000000: 8081 d83d 529c 26be 0e62 0f3e a9bc 3dbd
00000010: 8287 123e b16e 073e f819 a3bd dde5 ca3d
0.10571575 -0.16270569 0.14002249 -0.0463225 0.14309505 0.13225819 -0.079639375 0.09907124

conv1d_154/bias f4 [8]
00000000: 4502 bd3d 8eb3 0f3e becb 103e 792e 2e3d
00000010: f3c2 b7bd 920c 753d 692e c33d 1498 0c3e
0.092289485 0.14033338 0.14140221 0.04252479 -0.089727305 0.05982644 0.095303364 0.13729888

model_15/conv1d_154/Conv1D f4 [8, 1, 3, 3]
00000000: 85f4 14be f8c7 883e 206a 8a3e 011b 163e
00000010: 4549 c23e 4f27 a2be a724 86be 340d 023e
00000020: f1c1 5cbe 504e dfbd 179e 933e 285b b23e
00000030: df50 2fbe d4cd de3d 3978 e13d 34b1 33be
00000040: 24a2 4dbe 25d4 293e 61c5 19be 9b3d 9fbe
00000050: 802f 923e 616c 533e 0802 333d f08d 9b3e
00000060: b3d0 9c3e a710 72be 93c1 e2bd 0771 503e
00000070: 47ff 453d 5840 ad3e 97df 79be f97b 7a3e
00000080: 44ea b73d cc3f 463e f384 4a3e a860 82be
00000090: a5e7 e4bd 3b8d 05bd 3fe7 37be 430a 713e
000000a0: f30c ad3e dcbd c9bd f205 073e 07b1 d03d
000000b0: 3e2c b53e 5cb3 b03e 5cdb c5be 857e dfbc
000000c0: 3425 243e bf2c e83d 50d8 a33e 81ff 42bd
000000d0: 12d0 71be f65f d03c 4e68 abbe 0e63 b1be
000000e0: 20e0 38be d856 bf3e 1646 c53e f630 2e3d
000000f0: dc73 c23d 141d 22be 7eb3 dabe 5159 c13e
00000100: db96 fdbb 2410 4fbd 58d0 1a3e d538 993d
00000110: bde0 7d3d 6265 80be 2219 123e bdc4 b63e
-0.14546402 0.26715064 0.27034092 0.14658739 0.37946525 -0.31670615 -0.2619984 0.12700349
-0.21558358 -0.10903609 0.2883155 0.34835172 -0.17120694 0.10879102 0.11009259 -0.17548066
-0.20081383 0.16584833 -0.150167 -0.3110169 0.28551865 0.20646812 0.04370311 0.30381727
0.30627975 -0.23639165 -0.110720776 0.20355617 0.048339155 0.33838153 -0.24401699 0.24461354
0.089802295 0.19360274 0.19777279 -0.25464368 -0.11176995 -0.03260539 -0.17959307 0.23539071
0.33798942 -0.09850666 0.13185862 0.10190015 0.35385317 0.3451184 -0.3864392 -0.027282009
0.16029817 0.1133666 0.3200097 -0.04760695 -0.23614529 0.025436383 -0.33478016 -0.34645885
-0.18054247 0.37370944 0.38530034 0.04252716 0.09494755 -0.15831405 -0.42715067 0.37763456
-0.0077389306 -0.050552502 0.1511854 0.07481543 0.061981905 -0.2507735 0.142674 0.35696974

model_15/conv1d_155/Conv1D f4 [8, 1, 3, 8]
00000000: b7e6 603d f1aa 62be 5150 48be 303b 183e
00000010: bf10 51be b933 8c3e fdad 78bd 27cb 9ebe
00000020: 8258 123e c1ad ac3d 30bb 2fbe b1a7 673e
00000030: 5b29 b2bd ae75 943e 4fbb 943e 9e17 113d
00000040: 5754 813e 32f0 2a3e ae48 843e 869a 85bd
00000050: b0d3 35bd 4489 623e be87 ecbd 9b75 a93e
00000060: 661d c33e 3cbb 86bd 3998 32be ce28 af3d
00000070: 7672 a1be 8c59 2a3c aae5 b03e d352 9e3d
00000080: 7d37 fcbd 1345 7c3e 9e40 72be a98a bf3d
00000090: c443 a73d 3d69 07bf cccd 06be 1d26 94be
000000a0: 3c79 1c3e fdf0 623e 3ea3 5a3e d556 623e
000000b0: 8f15 103d e28b 763e cbb2 87be 8381 90be
000000c0: 54c3 c9bd 2d10 a03e 075f 9f3e 6b98 2ebe
000000d0: 9078 ed3d b4be 8e3c 35ce 223e 0d05 403d
000000e0: ba8e 5ebd 8220 463e 10d7 febd dc1f 0e3e
000000f0: 0e23 a0be 3bbd debd 6aa1 c23d 0165 b63e
00000100: c550 933e 3e05 37be cd9a e93b 23bd 433e
00000110: fce9 8fbe 647c 2dbe c1a0 b83e d235 b9bd
00000120: cfc5 d9bc daff 0dbd ef9e a23d ed45 44bd
00000130: 9abb 8e3e 482c a73e 53d4 f6bd fe38 8a3e
00000140: a7a1 003d 630c 0e3e b8b5 553e 98fb 76be
00000150: 9d11 f43d f421 a03e fb08 6e3d 26ff fcbd
00000160: 757e 103e 7d65 813e d2af 8dbe 82c2 64be
00000170: 687d 793d f87b 8a3e 60c0 8fbd f033 d93d
00000180: 0902 cebd b0cd 87bb be0b 943e 3b65 ae3c
00000190: 7765 7abe be33 09be 6e0a cc3c 7967 b83e
000001a0: a98c 883e 4596 843e debe 8d3d 738d 3ebe
000001b0: 5f3c 9cbc c919 7d3d 5eea 71be ea27 923e
000001c0: f294 a13e b2aa e3bd 8732 a33e 11e3 bebd
000001d0: b280 513d f4ef 92be 0c3a a0be f69a 833e
000001e0: 9c75 68be 6c84 e63d 4b10 aebd 78c6 213e
000001f0: 39ad 323d 15cc ccbc f991 533e 749f 1a3d
00000200: de9f 723e 4a4a 5e3e 26b9 1c3e 289a 3fbd
00000210: 4972 e0bd 2327 6a3e c46a 9e3d 3275 613e
00000220: ee14 93bc 83ea d83d d2b5 a23e 0dd1 a8be
00000230: b1b0 273d fc20 a13e fa02 923e fed5 f7bc
00000240: ef3d bb3e b9fe 4abe 0343 2fbe bea2 9dbd
00000250: 9b83 073e 672b ce3d 676f 5ebd 20a5 c73d
00000260: eddc 06be 5ffa d7be 7e8b 343e 5811 7ebd
00000270: abc4 913e 12ad b03e ab01 4bbe ec08 3ebd
00000280: 0390 1cbe d485 b1be 5d84 e7bc bd8b a03e
00000290: fe3c 393e 33f8 62bd cdc3 3e3d 1c8e 553d
000002a0: 8074 1ebe 7a66 6cbd fc1c b7be e814 b43e
000002b0: d593 2e3e 0bde 1dbe 5d4a 2abe 27e7 1dbe
000002c0: 247a dd3d 777d 823e 122f 563d cce1 7f3e
000002d0: 353a 89be cc14 6a3b 0da5 993e 9acf cb3c
000002e0: 6c5c 9d3e 3712 b1bd 043a 993c 0b5f 87be
000002f0: 3d3c df3d 601a c13d d801 4d3e 682b 873e
0.054907527 -0.22135521 -0.19561888 0.14866328 -0.20416544 0.2738321 -0.060712803 -0.31014368
0.14291576 0.084315784 -0.1716125 0.22622563 -0.08699294 0.28996032 0.29049155 0.035422914
0.2525966 0.1669319 0.258367 -0.06523614 -0.044391334 0.22122675 -0.11549328 0.33097538
0.38108367 -0.06578681 -0.17440881 0.08552705 -0.3153264 0.010397326 0.3455022 0.07730641
-0.12315271 0.24635725 -0.23657462 0.09352619 0.08167222 -0.52894956 -0.13164443 -0.28935328
0.15280622 0.22162242 0.21351334 0.22103436 0.03517681 0.24076799 -0.26503596 -0.2822381
-0.09851709 0.3126234 0.31127188 -0.1705033 0.11595261 0.017424919 0.15898974 0.046879817
-0.054335333 0.19348338 -0.12443364 0.13879341 -0.31276745 -0.108759366 0.095034435 0.35623935
0.2877256 -0.17873093 0.0071290494 0.19115119 -0.28108203 -0.16941983 0.36060145 -0.090434685
-0.02658358 -0.034667827 0.079404704 -0.04791825 0.27877504 0.3265097 -0.120522164 0.26996607
0.031404164 0.13871913 0.20870101 -0.24119413 0.11917422 0.31275904 0.058114033 -0.12353353
0.1411074 0.25272742 -0.27673203 -0.22339824 0.060910612 0.27047706 -0.070191145 0.106056094
-0.10058982 -0.004144393 0.2891521 0.021288505 -0.24452768 -0.13398644 0.024907317 0.36016443
0.26669815 0.25895897 0.06921171 -0.18608646 -0.019071756 0.06179217 -0.2362456 0.28546077
0.3155895 -0.11116542 0.31874487 -0.09320653 0.051148124 -0.28698695 -0.31294286 0.25704163
-0.22701114 0.11255726 -0.084992014 0.15798366 0.04362223 -0.024999658 0.20661153 0.037749723
0.23693797 0.21708027 0.15305004 -0.046777874 -0.10959298 0.22866492 0.07735208 0.22017363
-0.017954316 0.105916046 0.31779343 -0.32971993 0.04093999 0.31470478 0.28517896 -0.030253407
0.3657069 -0.19823731 -0.17115407 -0.07697056 0.13233797 0.10066872 -0.05430546 0.09748292
-0.13170214 -0.42183205 0.17631337 -0.06202826 0.28470358 0.34507042 -0.19824855 -0.046395227
-0.15289311 -0.34672415 -0.028261358 0.31356612 0.18089673 -0.055412482 0.04657345 0.05213748
-0.15474129 -0.057714917 -0.357643 0.351722 0.17048581 -0.15416734 -0.1662993 -0.15420209
0.10814312 0.25486347 0.052290983 0.24988478 -0.2680222 0.0035717962 0.30008736 0.024879266
0.30734575 -0.08646052 0.018704422 -0.264397 0.109001614 0.09428859 0.20020235 0.26400304

model_15/conv1d_156/Conv1D f4 [16, 1, 3, 8]
00000000: df12 32be a6e2 af3d b25f b83d a681 7fbe
00000010: 6d8f 533d 6324 58be c7cb d53d 4734 b73e
00000020: e697 063d 1f30 11be a660 923e 3ab9 81be
00000030: bb82 933e 725d 1fbe 7ad5 30be ad8a de3d
00000040: 19b5 443e ed2f 09be 3171 6ebe 4ca4 af3b
00000050: 4f0c 733d 0ce7 85be a1fd 1abe a079 32bd
00000060: 0373 cdbc 3ebf 65be a040 8f3e 4e17 88be
00000070: af28 81bd 27c6 a53d 8893 bfbd b2a0 bfbd
00000080: a4dc 09be f4c0 a2be 1998 383d 5d1a 303d
00000090: 2c21 edbd 154c 373d acb7 61be eab2 3ebd
000000a0: 8286 0d3d 858d b5bd ab78 aa3d 8c47 953c
000000b0: cd0e 1f3e 7b65 0c3d fc97 c1be b223 77be
000000c0: e4fd 993d b123 823e 6415 553e 8992 38bd
000000d0: d9f2 1e3e 31a4 0dbe 4363 f1bd ef6d e63d
000000e0: 2056 3e3e 9d4b 00be 6c52 0d3e 4b53 1dbe
000000f0: e64f bcbc 462a 7b3e e3bb 613e 5d61 023e
00000100: fecd c43d 5abc 553e 648b 403e e9ab 473e
00000110: 9130 8b3e 6d92 263e d3a3 703d 4e56 07bd
00000120: 1481 b73d 050c 26bd a17f 8d3d e548 7ebe
00000130: 8067 bcbc e3aa 3f3e 5c21 9fbe ab1d 9b3d
00000140: 46e7 21bc 82c2 213e d05b e33d b17f 503d
00000150: 0245 29be 8198 d2bc 131d 3ebe 0f9b 10bc
00000160: 8e3a ab3d 7149 a9be c4ff b7bd 72e9 953e
00000170: 0cff ed3d c134 86be 46ad d0be 1214 23bc
00000180: 2f87 7f3e 33a6 1fbe a2a8 3dbc 3606 8dbe
00000190: 1cad 9b3d 703c ab3c 3539 123e 46d6 7d3d
000001a0: 7db3 4b3e ece7 633c 72f7 7bbc 8783 723e
000001b0: 1f67 0b3e c9f7 e53d 436f 313e 38ab 90bd
000001c0: eff7 843e 8a4f 05bd dc79 c9bd 20a3 8d3b
000001d0: 5eda 8dbe 2e56 6dbd 318f 8dbe 9391 7c3e
000001e0: 946a 2cbe 6d4c 0ebe b0a3 82be 7069 14bd
000001f0: be87 b0bc 0e2f 8b3d 4091 00bd ce96 943e
00000200: 6e76 f93d 5503 09bc b06f a53d b6e3 39bd
00000210: f8dc 14be 4857 3a3e a192 04be d84a 69be
00000220: 177e d23d b438 813e 1fb8 f13d eece 863a
00000230: 899b 5a3e 9559 163e 3a8e 9cbd 8cde 38bd
00000240: fb4c 93be a29a e6bb f752 42be 874d 9b3e
00000250: e418 1d3e 53a9 27be ec01 26be db94 3cbe
00000260: 6e67 45bd 4648 3c3e 9d6d 93bd a455 293e
00000270: cde3 88be bac3 103e 7953 81be 441f 07be
00000280: 1d9a 16be 36ec 8abd 5338 42be 76a9 a1bc
00000290: 4bab 77be 69b0 28be 4be0 813d 825c 253e
000002a0: dd06 53be 6a4e 21be e5de 533e b31f 30be
000002b0: 9766 51be c415 a93e 6240 fe3d b589 02bd
000002c0: c402 38be 515c 5bbd a611 8b3d be33 75be
000002d0: 5012 d93c cebf 783d 4599 6ebd 5a13 32be
000002e0: 0f1b 0d3e dd92 8ebe eeeb e5bb 8170 0dbe
000002f0: 4d43 923e 3067 913e 42bc e6bc 7e2f bdbd
00000300: 4c2c 37be e7be 453e da3d 82be a40e fd3d
00000310: 4176 dc3d 0ae0 4ebd 1316 6d3e 3abc 703e
00000320: 3a4b ce3d 3056 8abe 4807 673e 7d0b 613e
00000330: 9201 58be 948f 71be b6b8 a93d 98c4 2b3d
00000340: 66ff 803e c5e3 893e fbd0 393e fa62 5dbd
00000350: 5525 58be fee4 3c3e c928 49bd d21f 85be
00000360: 5104 27bd acbc 9ebd b011 d43d a0aa d3bd
00000370: 2146 1d3e 7df6 403e 796c 3d3e 8b00 043e
00000380: 46ce 643e 2ab1 7abd 6c8f 573e bf24 8f3b
00000390: 5b57 cbbd 848f 36bd 03f4 bebd e808 60be
000003a0: 423f 9b3d 06cf 1cbe e883 fbbc aaee 21bd
000003b0: 6b95 3b3e 067f 88be 4a67 64be 9f02 e43d
000003c0: dd2f 7b3e 0b36 6f3e e86b 5a3d 2afb 513e
000003d0: 863a 893e ad6f 963e 27d9 70bd 9302 6bbe
000003e0: 1260 94bc db64 943d b114 b23d 7928 25bd
000003f0: 142d 4cbe ebe1 283d fd8e 8bbe 57fe a83d
-0.17390011 0.08588152 0.090026274 -0.249518 0.051650453 -0.2110763 0.10439258 0.35782072
0.032859705 -0.14178513 0.28589362 -0.2533663 0.28810677 -0.1556299 -0.17268935 0.10866294
0.19209708 -0.13397188 -0.23285367 0.005360162 0.05933791 -0.26152837 -0.15135814 -0.043573022
-0.025079256 -0.22436234 0.27978992 -0.2658028 -0.06306588 0.08094435 -0.09354311 -0.09356822
-0.13463074 -0.31787837 0.045066927 0.042993892 -0.11578593 0.04475029 -0.22042722 -0.046557344
0.034552105 -0.08864883 0.08323797 0.018222593 0.1553299 0.034276467 -0.37811267 -0.2413471
0.07519129 0.25417855 0.20808941 -0.04506162 0.15522327 -0.13832165 -0.11786511 0.11251437
0.18587542 -0.12528844 0.13800973 -0.15363805 -0.022987317 0.24527845 0.2204433 0.12732454
0.096096024 0.20872632 0.18803173 0.19499172 0.2718549 0.16266795 0.058749985 -0.03304129
0.089601666 -0.040538806 0.06909109 -0.24832495 -0.022998571 0.18717532 -0.3108014 0.07574018
-0.0098818 0.15796855 0.11101496 0.050903026 -0.1653023 -0.025707485 -0.18565778 -0.008826031
0.08360778 -0.33063844 -0.0898433 0.29279667 0.11620912 -0.26212123 -0.40757197 -0.009953516
0.24953912 -0.15590744 -0.01157585 -0.275438 0.07601377 0.020902842 0.14279635 0.061971925
0.19892688 0.013910275 -0.01537882 0.23682986 0.13613556 0.11228902 0.17327599 -0.070639074
0.25970408 -0.032546557 -0.09837696 0.0043224245 -0.27705663 -0.057943515 -0.2764831 0.24664907
-0.16837531 -0.13896342 -0.2551551 -0.036233366 -0.021549102 0.06796084 -0.03138852 0.29021305
0.12180792 -0.008362611 0.08077943 -0.045383178 -0.14537418 0.18197358 -0.1294656 -0.22782457
0.10277956 0.25238574 0.118026964 0.0010285059 0.21348394 0.1468261 -0.07644315 -0.045134112
-0.2876967 -0.0070374766 -0.18976961 0.30332586 0.15341526 -0.16373186 -0.1621167 -0.18416159
-0.04819434 0.18386945 -0.071986414 0.16536576 -0.26736298 0.14137164 -0.25258997 -0.1319552
-0.14707227 -0.06783335 -0.18966798 -0.019734126 -0.24186437 -0.16473545 0.063416086 0.1614857
-0.20608087 -0.15752569 0.20690496 -0.17199592 -0.20449291 0.33024418 0.12414624 -0.03186961
-0.17969805 -0.053554837 0.067904755 -0.2394552 0.02649799 0.060729794 -0.058251638 -0.17390195
0.13779853 -0.27846423 -0.0070166504 -0.13812448 0.2856697 0.28399038 -0.02816594 -0.09237574
-0.17887992 0.19311105 -0.25437814 0.12356308 0.10764743 -0.05050663 0.23152952 0.23509303
0.10072942 -0.2701888 0.22561371 0.21977039 -0.21094349 -0.23589927 0.08287184 0.041935533
0.25194854 0.26931587 0.18146126 -0.05404947 -0.21107991 0.18446729 -0.04911116 -0.2600084
-0.0407756 -0.0775083 0.10354936 -0.103352785 0.15358783 0.18844028 0.1849841 0.12890832
0.22344312 -0.061204113 0.21050805 0.004368394 -0.09928771 -0.04457046 -0.09323885 -0.21878397
0.07580425 -0.15313348 -0.030702546 -0.03953425 0.18318717 -0.2665941 -0.22305027 0.111333124
0.24529977 0.2336046 0.053325564 0.20505968 0.26802462 0.29382077 -0.058800843 -0.229502
-0.018112216 0.07245799 0.08695353 -0.0403218 -0.19939071 0.041231077 -0.2725753 0.082516365

model_15/conv1d_157/Conv1D f4 [24, 1, 3, 16]
00000000: 4404 7b3d 2faf 3c3d 69a5 853d aa07 3f3e
00000010: 59fb 723d 0338 e3bb 9530 ee3d 38b0 473e
00000020: 1d53 7a3d 3db7 4ebe 26de 16be 489e 923d
00000030: a96f 29be dde8 95bd dcfd 1e3e 68f3 82bd
00000040: 2002 7bbd 479d 8d3e b7c9 1a3e 0565 06be
00000050: 5671 4ebe 8957 38bd 0811 503e 4c13 81bd
00000060: a548 1c3e 041e 19bd 99c2 9f3d 725b 573e
00000070: e2bf f33d 0105 8e3d 4a5e a7bc 8f9e 0bbe
00000080: 8886 ed3d 5c80 483d 1e86 8cbd d752 4f3e
00000090: 600f b03d 30fe 433c 00b7 f73d 7ee4 7a3d
000000a0: 4462 ddbc f740 2b3e bc86 51be 276a 10bd
000000b0: 62dd 6a3e 4474 4e3e f9d0 3abe 21ff 113e
000000c0: fb05 353d f02a d23d 08a2 0d3e e19a c5bc
000000d0: 391b 853e 944e d93d f4cc b93c f879 6f3e
000000e0: 6613 e4bd 3168 013e 93c4 013e 43e6 283e
000000f0: a8be 13be 6370 203e e8b2 9b3d 130a 7c3c
00000100: 9a57 a3bc 02b3 6dbd 76ad 1cbd f314 1d3c
00000110: 6229 6dbd 6b44 593e eef1 023c b4a4 073e
00000120: daa2 2cbe ed09 1a3e 2607 273e 5816 823e
00000130: c148 10be 9e7e 343e 0476 dabc 16d8 423e
00000140: 9403 5c3d d70a d53d 2681 433e 07ea debd
00000150: c924 96bc c599 41be a1c5 d73d ddd0 923e
00000160: 90d0 4a3e 0833 1ebd 31c5 423d bb98 523e
00000170: f88a b7bd 5499 373d f497 e2bd 407c 2f3e
00000180: b148 89ba b92c 7e3e 89d2 9cbd b8e5 123d
00000190: 921c 03be 688a 563e 4d75 003e af01 9c3e
000001a0: e93c c0bd 714a c0bd 58ea dbbd af5e 0d3e
000001b0: 4188 d9bd 95e4 2fbe 40d1 683e 2589 ecbd
000001c0: 53cf 35bd 40f8 873e f88d 5fbe 8850 903d
000001d0: 4619 c6bd 1016 933d c7bb 1abd 3258 e33d
000001e0: c084 ee3d f87a 29be 91e6 013e 5275 453e
000001f0: 331a debc b83b 403d e921 3c3b 69a6 f2bd
00000200: dd07 f33d 5efb 4d3e 68f1 1ebe 87c5 9c3e
00000210: 7d84 613d 636e 043e dbb1 3cbe 56a8 983d
00000220: 320d d3bd b4fd c03d d51e 353d f29e a0bd
00000230: df47 0fbe 98db a6bc 1d68 ff3d 226c bfbc
00000240: 8c41 293e 02b7 ecbd c1af 96bd c023 953c
00000250: a604 bebd 29fe 13be 5c6a c63d 2cf0 5a3e
00000260: 10d8 46be 029f 15be 123a 4abe 84fa 0ebe
00000270: f684 183e 387a 483e bede 863c 1bdd e8bb
00000280: e812 7a3d 7a5c a0bd c86e 463d 0295 563e
00000290: ec25 49be aee4 8f3d 28ff 3d3e 90aa 403d
000002a0: fa87 fb3d 9cac efbd a94d 3b3e 840a a03d
000002b0: 282f 413d 40b2 0ebd dcfa d23d 390e aebd
000002c0: 8f46 5cbe 6729 59be bbac 31be 97c0 34be
000002d0: 4023 99bd 64ec 453d c43d b83d 8cec d93d
000002e0: 9178 2dbe 60e7 3d3e 6d26 1fbe ac85 ae3d
000002f0: 021f 90bd f86e 543d b393 d4bd 807b 2d3d
00000300: 3a97 3f3d f4e1 03bd cd70 303e 9aba f93d
00000310: 8be5 a73d 7ae6 2bbe d622 203e a724 7d3e
00000320: c44e c93b 0fcd 503d ca70 6abd a41c 843d
00000330: a82c 1ebe 622d e8bd 6919 b03a 72bc c13d
00000340: 7165 2a3d f2a5 cbbd bfd1 b4bd 9e68 94bd
00000350: ef18 62bd 3145 2bbe 4881 4f3e 6449 6c3d
00000360: 2a42 693d 9d4e 2bbe bab1 42bc e0aa 503e
00000370: 3fa6 963d 1c26 573e c4a8 96bd 0c5d 01be
00000380: 83e9 bb3e a57d 29bd 0ce5 393d ad1c 8e3e
00000390: 1c24 273e 14ad 183d 637e 04bd 4a19 1b3e
000003a0: 04a0 8bbd eeda bebc 62b3 ba3d c1da 3b3e
000003b0: 0274 6cbc f6d2 903d 67fc d0bc 667a d8bc
000003c0: 2cc3 92bd 2bb8 dfbd 0fdb c3bd fb7f 5cbe
000003d0: c439 45be de24 253e 0823 18be a541 38be
000003e0: 68da cdbc f356 97bd b32c bf3c 34a4 92bc
000003f0: 72c4 37bd 5d90 eb3d e69e e83d e55e f2bd
0.061283365 0.046065506 0.0652569 0.18655267 0.059321735 -0.0069341674 0.1163036 0.19500816
0.06111442 -0.20187087 -0.1473318 0.07159096 -0.16546501 -0.07319806 0.15526527 -0.06394082
-0.061281323 0.27659056 0.1511601 -0.13124473 -0.20160422 -0.045005355 0.20318997 -0.06302509
0.15262087 -0.03738214 0.078007884 0.21030977 0.11901833 0.06934548 -0.020430703 -0.13634704
0.115979254 0.048950538 -0.06861518 0.20246445 0.085966825 0.0119624585 0.12095451 0.061253063
-0.027024396 0.16724001 -0.20461553 -0.035257485 0.22936013 0.2016154 -0.18243779 0.1425748
0.044195157 0.10262096 0.13831341 -0.024121704 0.25997332 0.10610691 0.022680737 0.23386371
-0.111365125 0.12637402 0.12672643 0.16494088 -0.14428198 0.15667872 0.07602483 0.015383261
-0.019939233 -0.058032043 -0.038251363 0.009587514 -0.057900794 0.21217506 0.007992251 0.13246423
-0.16858998 0.15042849 0.1631132 0.25407672 -0.14090253 0.17626426 -0.026667602 0.19027743
0.05371435 0.10402458 0.19092235 -0.10884481 -0.018328087 -0.18906315 0.105357416 0.28674975
0.19806123 -0.038622886 0.047551338 0.20566075 -0.08962053 0.04482396 -0.11064139 0.17137241
-0.0010473934 0.24821748 -0.07657344 0.035863608 -0.12803867 0.20951235 0.12544747 0.30470034
-0.09386618 -0.093891986 -0.10738057 0.1380565 -0.106216915 -0.17177041 0.22736073 -0.11549596
-0.044387173 0.26556587 -0.218315 0.0704661 -0.09672789 0.071819425 -0.037776735 0.11100806
0.11646414 -0.16550815 0.1268561 0.19283035 -0.027112102 0.046931952 0.0028706735 -0.118481465
0.11866734 0.2011542 -0.15521777 0.3061945 0.05505799 0.12932734 -0.18427221 0.074539825
-0.10305251 0.0942339 0.044218857 -0.078428164 -0.1399226 -0.020368382 0.1247103 -0.023366991
0.1652891 -0.115583435 -0.07357741 0.018205523 -0.0927823 -0.14452423 0.09688255 0.21380681
-0.19418359 -0.14611438 -0.19748715 -0.13962752 0.1489447 0.19577873 0.016463634 -0.007106436
0.061053187 -0.078301385 0.048445493 0.2095528 -0.19643372 0.07026039 0.18554366 0.04703766
0.12281795 -0.117028445 0.18291344 0.07814506 0.047164112 -0.03483796 0.10301754 -0.084988065
-0.21511291 -0.212072 -0.17351048 -0.17651592 -0.074774265 0.048321143 0.08996156 0.10640821
-0.16940524 0.18545294 -0.15542002 0.0852159 -0.07037164 0.05186364 -0.10379734 0.042354107
0.04677508 -0.032197908 0.1723053 0.121937945 0.08198079 -0.16787139 0.15638289 0.24721013
0.006143423 0.05097681 -0.05723647 0.06450775 -0.15446723 -0.11336781 0.0013435307 0.09459771
0.04160065 -0.09943761 -0.088290684 -0.07246517 -0.05519956 -0.16725613 0.2026416 0.05768718
0.056947865 -0.16729207 -0.011883194 0.20377684 0.07355928 0.21010631 -0.07356408 -0.12633151
0.36701593 -0.04137959 0.04538445 0.27756253 0.16322368 0.037274435 -0.032347094 0.15146366
-0.0681763 -0.023297753 0.09116246 0.18345167 -0.014431955 0.070714876 -0.02551098 -0.026425552
-0.07166132 -0.10923799 -0.095632665 -0.21533196 -0.19260317 0.16127345 -0.14857113 -0.17993791
-0.025128558 -0.07389631 0.023336744 -0.017900564 -0.04486508 0.115021445 0.113584325 -0.11834506

model_15/conv1d_158/Conv1D f4 [32, 1, 3, 24]
00000000: bce5 103e 2fd2 0f3e 7290 113e 39bb 9b3d
00000010: 3fc3 2e3d eb05 9dbd de85 bc3e c749 363d
00000020: a9fc 713e a619 debd f3b8 aebd d345 9cba
00000030: 013f 153e 76b0 44bc 90bf 743e e30b 6d3e
00000040: a812 30be 630e 213e 7d43 e3bd 5d0a 533e
00000050: f7ed 713e 8b36 3d3e 2e7c 853e bfc6 1ebd
00000060: 4246 53bc ed64 e63d f3a2 b43c 60db 9a3d
00000070: 2d7b 8cbd db91 b4bd 3619 533e 8c84 b7bc
00000080: 708e d5bd 9c59 433e 96cb 013e 9b27 8e3e
00000090: 556b 173b 0427 393c d2ce 343e 459f 523e
000000a0: 1fd6 e0bd 8e89 c73c 87d6 46bc bb1a dcbd
000000b0: 90ea 70bd 7536 6b3b c8a7 753d d111 99bd
000000c0: 96ec d2bc d8c9 1f3e 39bb 9d3d dd18 c03d
000000d0: 6036 263e ac45 173e a354 8d3e d0d8 c13a
000000e0: 7b69 913d e938 f4bc caf4 aabd 45d9 8e3e
000000f0: 37e3 9fbc 8f84 533e 8450 1d3c d64d da3c
00000100: dba4 d3bc d0dd 8ebd ca79 423d c785 58bd
00000110: 8217 9f3d 6b18 513e b71e b6bb f5f4 663e
00000120: 805d 8e3c 1b3a 563e b1e4 ba3e 4c9f 10be
00000130: df6f 263e aa09 7ebd 93b3 f73d e60a 20be
00000140: 6c78 603e e21a b8bc 6966 f4bd 0892 903e
00000150: 68ce adbd e1c7 673e 1e15 ae3d 8fcf 8abd
00000160: a432 383e f114 a6bd f154 adbd 36a6 2b3d
00000170: 12df dbbd 6e24 edbd 4061 483e 987a aa3d
00000180: 3d14 50bd 6e13 03bd adc8 3a3e 5510 343e
00000190: acb2 883c 46a4 cebd 4cc3 483d 9fd2 ff3a
000001a0: 3dee 593d 0ac4 493c 30e8 1dbc 0e6f 4f3e
000001b0: 2cf5 04bd 1c45 08be 6a74 cebd bba4 d4bd
000001c0: 2d7b f1ba 2c3d d3bd ef92 1b3e 4c56 5a3e
000001d0: ee30 523e b10c 5dbd 02aa a43d ff41 d03d
000001e0: 5fa0 59bd 6b0d 0e3e 5e3a a23d d94b 153e
000001f0: 748f 503e ebfb 923d 59be 00bd 139d f3bd
00000200: e4c8 bbbd 8b08 423e b1f2 413e c9d7 6b3c
00000210: 2a60 673d e874 c9bd 8944 2a3e 4c73 6a3e
00000220: 4c8c 57bd 7fe2 373e 47b7 043e ae14 053d
00000230: 365a 953d a575 d03d 231d 5c3c 07c8 763d
00000240: ad38 163c d507 343e 8596 403d db91 393e
00000250: 6b60 e53d 6201 8abc d26d 863e 79b3 9b3d
00000260: cb85 423d 51d8 0a3d b607 c63d 12ae a4bc
00000270: 8794 e0bd 63ce ff3d 0071 6a3e dc06 b43d
00000280: ab00 293e a1ff 623d d847 853e 2d0b 0c3e
00000290: e71b b7bc 59f1 c6bb 0fa5 483d e71f 3e3e
000002a0: 860f 983d c805 553d aacf 993d 8e03 c33d
000002b0: 67f9 6c3e 597d 14be 494a e33c 8617 cb3d
000002c0: 6783 f9bd 1626 113e 7cf4 293e 3966 233c
000002d0: 5532 e73a d748 d4bb b067 6cbd 5b7d 5f3e
000002e0: 06d5 553e 2ee8 d83c 8b78 2cbd 4768 673e
000002f0: 209b 243e b63c 5bbd c3c3 49bc c982 493e
00000300: 5223 dcbd a1c5 0fbd 7aaa 5c3e b9b7 0d3e
00000310: e913 06be 0fc2 323e f723 ae3c 34bb 8ebd
00000320: c073 0bbe b4ee a93c 25b4 aabc 73fd 953d
00000330: 5505 edbc e27a 33bd e30a 073e 1378 1d3e
00000340: a455 773b c099 243d abf9 983d 4b4b 983d
00000350: 62c5 9a3d 7ead 3a3e 4484 7bbd 31b2 24bd
00000360: 6311 2b3b ecbe 503d 05ec ba3e 0d38 6ebc
00000370: 93df 86bd dae8 c83c e7a2 5f3c cdb0 373e
00000380: 19b3 293e 6de8 2b3e b024 c53d 1c86 8d3e
00000390: c6c2 693e 76b6 ae3d fdf4 043e ff9a f5bd
000003a0: b4cc 0d3d 1cda 7d3e ad46 123d 4c3c d23d
000003b0: 6a1c 053e b776 05be 95f7 3e3c c511 2f3e
000003c0: 1e6e 8ebd 1add dc3d 8a55 503e adfe d4bd
000003d0: 7a54 d93d c135 0fbe 5550 5e3e 0a0c bc3d
000003e0: 060e 613d 5288 f3bd 4758 3f3c e098 1e3e
000003f0: 84d2 f3bd 9703 9cbd ee3a 86bc 2f46 0c3e
0.14150137 0.14045022 0.14215258 0.07604069 0.04266667 -0.076671444 0.36820883 0.044503953
0.23631538 -0.10844736 -0.0853137 -0.0011922665 0.14574815 -0.012004962 0.239012 0.23149066
-0.17194617 0.15728144 -0.11096857 0.20609422 0.23625933 0.18477838 0.26071304 -0.038763758
-0.012895169 0.11249719 0.022050356 0.07561374 -0.068594314 -0.08816882 0.20615086 -0.02240207
-0.104275584 0.19077152 0.12675318 0.27764592 0.0023104746 0.011300806 0.1765702 0.20568569
-0.1097834 0.024357583 -0.012136108 -0.10747286 -0.058817446 0.0035890613 0.05997446 -0.07474101
-0.025747579 0.15604341 0.077017255 0.09379742 0.1623168 0.14772671 0.27603635 0.0014789347
0.07100197 -0.029812293 -0.08347471 0.27900138 -0.019517524 0.20656036 0.009601716 0.026648443
-0.025835445 -0.06975901 0.04747943 -0.052861955 0.07768156 0.20419471 -0.0055578607 0.22554381
0.017378569 0.20920603 0.36502603 -0.14123267 0.16253613 -0.062020935 0.12094798 -0.15629157
0.21920937 -0.022473756 -0.11933596 0.28236413 -0.084866345 0.22634842 0.085001215 -0.0677787
0.17988068 -0.08109463 -0.08463467 0.041906558 -0.10735907 -0.11579214 0.19568348 0.08324164
-0.05080055 -0.03200095 0.18240614 0.17584355 0.01668676 -0.100899264 0.049014375 0.0019517726
0.053205717 0.012314806 -0.009637877 0.20257208 -0.032460377 -0.13307613 -0.10080798 -0.10382982
-0.001842355 -0.10314402 0.1519277 0.21321982 0.20526478 -0.05396718 0.08040239 0.10168838
-0.053131457 0.13872306 0.07921289 0.14579715 0.20367223 0.07176956 -0.03143153 -0.11895194
-0.09169176 0.18948571 0.18940236 0.014394709 0.056488194 -0.09836751 0.16627707 0.22895545
-0.052624032 0.17957495 0.1296054 0.032490425 0.07292597 0.10178689 0.013434681 0.060249355
0.009168786 0.17581113 0.047018547 0.18122046 0.11200031 -0.016846363 0.2625566 0.07602591
0.047490876 0.0338977 0.096694395 -0.020102534 -0.10965829 0.12490537 0.22894669 0.08790371
0.16504161 0.055419568 0.26031375 0.13676138 -0.022352172 -0.0060712514 0.048985537 0.18566857
0.07424836 0.052007467 0.07510312 0.095221624 0.23142014 -0.14500941 0.027745383 0.09916596
-0.12183266 0.14174685 0.1659717 0.009973102 0.0017638901 -0.0064784097 -0.05771607 0.21825163
0.20882043 0.0264779 -0.042107146 0.22598372 0.160748 -0.053524695 -0.01231474 0.19678797
-0.10748924 -0.035100583 0.21549407 0.13839616 -0.13093533 0.1745684 0.021257384 -0.069693
-0.13618374 0.020743705 -0.020837853 0.07323732 -0.028933207 -0.043818362 0.13187747 0.15377836
0.0037740255 0.04018569 0.074694954 0.07436236 0.07557179 0.18230245 -0.061405435 -0.040209
0.0026102893 0.050963327 0.36508194 -0.014539731 -0.06585612 0.024525095 0.013649679 0.17938538
0.16572227 0.16787882 0.09626138 0.2764138 0.22828206 0.085308954 0.1298408 -0.11992454
0.03461905 0.24790233 0.035711933 0.10265407 0.1299912 -0.13033567 0.011655708 0.17096622
-0.06954597 0.10784359 0.2034513 -0.10400138 0.10611816 -0.13985349 0.21710332 0.09181984
0.054945014 -0.118912354 0.011678762 0.15488005 -0.11905387 -0.07617872 -0.016385522 0.13698648

model_15/conv1d_159/Conv1D f4 [48, 1, 3, 32]
00000000: 4cab a83d 9285 653e 644d 153e 8422 f33d
00000010: d026 aebd b2b1 8bbd bf6d 933a 987e 693e
00000020: 3dbc 9a3d 501d 463e 4966 95bd f240 0b3d
00000030: 1439 a83d 514b aa3c f16c 2a3e da86 ce3c
00000040: f949 96bd 395c 213e 7dca 2f3e e900 fc3d
00000050: 1922 5e3e eab8 b7bb 82c4 dabd 44f0 83bd
00000060: 31db 4ebd d50d ba3d dae5 1a3e 91ad 0f3d
00000070: 055a 8a3d 606d 11bd 5fb1 75bb fbbb 8abb
00000080: 4a60 1b3e b3e7 d93d ab04 cc3d 5ffa 2f3e
00000090: 15f2 0bbd 9573 383e a3bd fb3d 0c5a 5e3d
000000a0: a17e f13d 24f1 c4bc fb56 a03d 79ea a5bd
000000b0: af4e 773c d7f5 8b3d 2c5c 093d f249 0a3e
000000c0: 7c19 c7bd 6f1b 3e3e 76da 793c bf64 273d
000000d0: 201a 2b3e 817c f93d e26a 39bd 700e c2bd
000000e0: f51f 0d3e 0652 d4bb 252d 043e 513b 003c
000000f0: 16db 593d 103a f7bc 372d cd3d 8a03 34bc
00000100: 6cbf 6f3d 6992 ec3d 55e0 373d 6166 d7ba
00000110: 6331 173e 96bf c73d 7b0a 13bd 1eb8 5e3e
00000120: 0ce6 7dbd 663b 423e 72b0 303e 39dc 153e
00000130: 9220 813e 6d01 22bd 2e79 39bd 7089 9fbd
00000140: 92e8 9fbd b189 243e f77b 61bc b1b9 743b
00000150: 1434 bd3d bd81 193e ca63 243e d913 043e
00000160: 2b33 d8bd 1dd1 13bd 539e 053e cfcd c53d
00000170: 71d7 583e 73e3 043e 1de8 bb3d acff 913a
00000180: 94bb b93d 1421 2a3e a4ee 2d3e b205 87bd
00000190: b7c4 7f3d eeca 043e 608f a0bc 1e6f 72bb
000001a0: ec5c f43d a710 d13c c810 61bd 6562 d73c
000001b0: 4f18 5c3d 42c3 d3bc a99a 333e 7149 0e3e
000001c0: 9014 63bd 089c b63d 8592 d53d cba4 0c3e
000001d0: 2862 3e3e 8fa3 1b3e 5875 8c3d c761 bbbd
000001e0: 2572 963c c47b bcbd b0ab ce3d 2ba6 82bd
000001f0: ce2b be3b 334f 20bd 9e4f 3c3d 41c0 233d
00000200: 77dc 423e 2ecf dbbc 08a1 c03d b573 493e
00000210: 5b63 a5bd 64a3 dcbb 7864 5dbd 8b59 b83d
00000220: 44d9 83bd 9d63 023e 0e6a 3cbd 7d32 f0bc
00000230: 1850 e7b7 aab8 1a3d 0097 8abc 3d6d 563e
00000240: b9c7 883d eb35 30bd 5c77 433c 56c0 c33b
00000250: 0789 35bd 7b24 623d 489a 153e 183d 02be
00000260: 6f97 82bd d29d f83d ea62 083e c32c b9bc
00000270: c01c b5bb 3a27 0a3e d22e 1a3e 003b 613d
00000280: 6249 f23d dac4 e73d 54db e33d 48af 243e
00000290: 4620 583c e3a9 b33d 77e7 363e c549 0d3e
000002a0: 210c 643d 43ff a13d 6f8a 193b 9298 c43d
000002b0: 899d afbc 3d3e 093e c0ec 143e 9999 fcbc
000002c0: be2a 483c 9e1d 36bd de6c 743d 134c d6bc
000002d0: 0672 363e 600c 423e 9317 a7bd b15e a03d
000002e0: d823 c6bd 4a35 cd3d c827 e83d 6fa8 d13d
000002f0: ae85 54bd ec0a c63d 3f14 ad3c 0d26 103d
00000300: 6b88 fa3d fef0 283d d235 3f3e b439 203c
00000310: fe07 143d 0e79 2cbd 74cd a83d 9fff 74bd
00000320: 75ca 68bd 3c4b 19bd a0ca 9ebc 3ed1 42bd
00000330: f167 f73d b8dc 603d a599 453e 080e 0a3e
00000340: 74d9 d73d 3af5 023d 357a 1f3e ce9a bd3c
00000350: f54c 6cba 2ff7 a9bd 8b9f f5bc f1ba 1e3e
00000360: ee70 e7bc 8e7f e63d aafb 4d3d 79e2 fd3d
00000370: b413 0e3e 1f7c ae3d 34ba bf3d d844 f2bb
00000380: 316d ca3c 54bb 1ebd 1d9a 363e 7a5f 97bd
00000390: ff16 c2bb 94e0 bdbd cfa1 1e3e 9932 243e
000003a0: c1db dd3d ffc2 c23d 060c 153d 0cbd 203e
000003b0: b6e9 d5bc 39ae 9e3d 23a6 b5bd 53be 013e
000003c0: d14d a53d 8138 e13d ec4c 723d 76ed 6b3d
000003d0: 2fd9 053e bcee 4d3d 8426 083e df74 09be
000003e0: bbb0 183e 4810 a63d c160 c53d 4630 4fbd
000003f0: ba0a 113e 4dfd aa3d af6c 62bd 6c15 4cbd
0.08235797 0.22414234 0.14580303 0.11871818 -0.08503497 -0.06821002 0.0011247917 0.22802198
0.07555435 0.1934712 -0.072949 0.033997484 0.08214012 0.020787867 0.1664312 0.025210787
-0.07338328 0.15757836 0.17167087 0.12304861 0.21692695 -0.0056067603 -0.10682012 -0.064423114
-0.050502006 0.090846695 0.15126744 0.035077635 0.06755451 -0.0355047 -0.0037489755 -0.004233835
0.1517345 0.10639896 0.09961828 0.17185353 -0.034166414 0.18012841 0.1229203 0.054285094
0.11791731 -0.024040766 0.0782909 -0.08101363 0.015094443 0.068339996 0.033535168 0.1350477
-0.09721658 0.18565153 0.015249839 0.040867563 0.16709185 0.1218195 -0.045267947 -0.0947541
0.13781722 -0.0064795045 0.12907846 0.007826642 0.053187452 -0.030179054 0.1001839 -0.010987172
0.058532164 0.11551363 0.044891674 -0.001643371 0.14764933 0.09753339 -0.035898667 0.21749923
-0.061986968 0.18967971 0.17254809 0.1463479 0.25220162 -0.03955214 -0.04528158 -0.07789886
-0.07808031 0.1606815 -0.013762466 0.0037342126 0.09238449 0.14990897 0.16053692 0.12898196
-0.105566345 -0.036088098 0.13048677 0.096583955 0.21175934 0.1297739 0.091751315 0.0011138818
0.09068981 0.16614181 0.16985565 -0.06592883 0.06244346 0.12968037 -0.019599617 -0.00369925
0.11931786 0.025520636 -0.054947644 0.026292035 0.05373412 -0.025849942 0.17539467 0.13895203
-0.05543953 0.08916479 0.10428337 0.13734739 0.18592131 0.15199111 0.06858319 -0.09149509
0.018364975 -0.09203294 0.100913405 -0.0637935 0.005803562 -0.03913803 0.045974366 0.03997827
0.19029413 -0.02683219 0.09405714 0.19673045 -0.08075591 -0.006733345 -0.054050893 0.09001454
-0.064379245 0.12733312 -0.04599958 -0.02932095 -2.7574642e-05 0.037773766 -0.016917706 0.20940109
0.06678719 -0.04302017 0.011930313 0.005973856 -0.044320133 0.05521057 0.14609635 -0.12718618
-0.0637654 0.12139477 0.13318983 -0.022604352 -0.005527109 0.13491526 0.15056923 0.054987907
0.11830403 0.11316843 0.11125818 0.1608249 0.013191288 0.08772638 0.17861734 0.13797672
0.05567563 0.079100154 0.002342846 0.09599413 -0.021437423 0.13402648 0.14543438 -0.03083496
0.012217222 -0.04446184 0.059674136 -0.026159322 0.17816934 0.18950033 -0.08158793 0.07830561
-0.096748054 0.1001993 0.11335713 0.10237204 -0.0518853 0.09670052 0.021127818 0.035192538
0.12233051 0.041245453 0.18672875 0.0097793825 0.036140434 -0.042107634 0.08242312 -0.05981409
-0.056833703 -0.037425265 -0.019383729 -0.04756283 0.12080372 0.054897994 0.19296892 0.13481915
0.10539523 0.031972148 0.15573962 0.023145106 -0.0009014153 -0.082991 -0.029983303 0.15501
-0.028252091 0.11254798 0.050288834 0.12396712 0.13874704 0.08519768 0.09361687 -0.0073934607
0.02471027 -0.03875287 0.17832227 -0.073912576 -0.0059231515 -0.092713505 0.15491413 0.16034926
0.1083293 0.09509849 0.03638842 0.15697116 -0.026112419 0.07748074 -0.08869579 0.12670259
0.08071483 0.109971054 0.05915539 0.057599507 0.1307113 0.050276503 0.13295943 -0.13423489
0.14911167 0.08108574 0.09637595 -0.050583147 0.14164248 0.083490945 -0.05527943 -0.049825117

model_15/conv1d_160/Conv1D f4 [1, 1, 3, 48]
00000000: 0cf9 863e 94f4 1ebd 87b5 4e3c 9fff 0ebe
00000010: 7e30 b3bd 9ec3 783d 8221 df3c ab46 2ebe
00000020: f5f3 803e 9895 d93c 81fb 02be 8b26 3cbe
00000030: 34b5 8f3d c4a3 d53d 4059 383d 7c7a 3abe
00000040: 3a6b 85bd 5e6b 743e 55d9 44bc 53e2 9c3d
00000050: e1c7 19be 2660 04bd 3512 37bc 702d c6bc
00000060: d72d 973c 645a 94bd d1ef bebc dc94 063d
00000070: dac5 143e 2164 a7bd 5be8 0dbe bdeb 443e
00000080: 3fbe 07be 6d23 883e cee6 e73c fc03 47bc
00000090: 95cd 1d3e 687e 32be 93c7 a4bd 9abc 9ebc
000000a0: d769 173b c5d3 803d f155 c13d 6ef7 e4bc
000000b0: cfe2 193e 6887 1dbc 52c3 9aba 9db3 4a3e
000000c0: 2360 be3c e596 233e 6b37 b13d 1965 0dbe
000000d0: 37e1 c8bc 8658 0e3e 6e4f 603e 3611 2fbe
000000e0: d512 a13d 8332 a0bd 6f84 0a3e fb27 54bd
000000f0: 63ab 4b3e 1b7c ad3c 3956 c13d 3705 80bd
00000100: 777c 0e3d 5b19 173e 725b 5f3e 3bd5 813d
00000110: d1a3 193e e99b 68bd bc58 773e 70ec ee3d
00000120: e7c6 00be 9860 b0bd c41f 28be 2706 303e
00000130: 2ac6 2d3e 50d2 963b 234a f4bd bbd6 1a3e
00000140: 812d 1f3e 0046 cf3d 3f64 b1bd cfbd 783e
00000150: 2410 cebd 5ae6 c4bd b4aa 12be 7959 0b3e
00000160: 9513 c7bd 5254 753e aff0 d4bd 92ad 30be
00000170: 5e53 d5bd ebc1 a8bd a6a4 e9bd f8eb 803e
00000180: 0e55 b53d a06b 203e 564b 823e 06b0 103e
00000190: 87f1 b53d ed4d 943d f492 a3bc 6019 ff3d
000001a0: 71e9 ca3d 55b6 30be bf3b f1bd 3a70 313e
000001b0: e8ef 1fbc 6026 403e bed7 133e f55d f2bd
000001c0: ddd6 10be fd8d ac3d cb59 753e 417a 353e
000001d0: 2687 8ebd b4cb 56bd b2a6 463e e27e 083e
000001e0: 7785 23be f085 8abd d58f 3abe c474 743e
000001f0: 08e7 a13c 7c22 b73d ff6b 393e efbc 8ebd
00000200: c811 d73d d14a c9bd 6c9f 493e 5086 9d3d
00000210: 0ec6 08be d116 103e 0860 903d 2310 c13d
00000220: 0db4 27be d90f fa3c 0b48 d0bd 064b 0abe
00000230: 0649 06be 507f d6bc 720f 8e3d 6ff5 383d
0.26361883 -0.038807467 0.012616522 -0.13964699 -0.087494835 0.06073343 0.027237657 -0.17019145
0.25186124 0.02656059 -0.12791254 -0.18374078 0.07016984 0.104316264 0.04500699 -0.18210787
-0.065145925 0.23869082 -0.012014707 0.076603554 -0.15017654 -0.032318257 -0.0111737745 -0.024191588
0.018454475 -0.07243803 -0.023307713 0.032856807 0.145286 -0.08173395 -0.13858168 0.19230552
-0.13256167 0.26589528 0.028308298 -0.012146946 0.15410455 -0.17431033 -0.08045878 -0.019377042
0.0023103857 0.06290392 0.0944022 -0.027950015 0.15027927 -0.009614803 -0.0011807478 0.1979508
0.023239201 0.1597553 0.08653148 -0.13808097 -0.024521453 0.13900957 0.219053 -0.17096409
0.0786492 -0.07822134 0.13527082 -0.05179594 0.19889598 0.021177342 0.09440274 -0.06250995
0.034786668 0.14755766 0.21812227 0.063394986 0.15003897 -0.056789313 0.24154943 0.116661906
-0.12575875 -0.08612174 -0.16418368 0.17189847 0.16970125 0.004602708 -0.11928203 0.15120976
0.15544702 0.10120773 -0.086616985 0.24291156 -0.10061672 -0.096142486 -0.1432293 0.1360835
-0.09720532 0.23957947 -0.10397469 -0.17253712 -0.10416292 -0.08240112 -0.11408357 0.2518003
0.088541135 0.15666056 0.25448102 0.14129648 0.08883958 0.07241426 -0.019967534 0.12456012
0.09907807 -0.17257054 -0.11778974 0.17327967 -0.009761788 0.18764639 0.14437768 -0.11834327
-0.14144464 0.084255196 0.23960035 0.17722417 -0.06959371 -0.05244036 0.19399527 0.13329652
-0.15968882 -0.06763828 -0.1821893 0.23872668 0.019763485 0.08942124 0.18107603 -0.0696963
0.105014384 -0.09828723 0.19689721 0.07691634 -0.13356802 0.14071204 0.070495665 0.09426906
-0.16377278 0.030525135 -0.10169991 -0.13505182 -0.13113794 -0.026183754 0.0693654 0.04515594
